…
7;dropout2&#x27;</span>))</span><br><span class="line">model.add(Dense(<span class="number">10</span>,activation=<span class="string">&#x27;softmax&#x27;</span>,name=<span class="string">&#x27;softmax&#x27;</span>))</span><br><span class="line">model.summary()</span><br><span class="line"></span><br></pre></td></tr></table></figure>
<pre><code>Model: &quot;sequential&quot;
_________________________________________________________________
Layer (type)                 Output Shape              Param #
=================================================================
flatten (Flatten)            (None, 784)               0
_________________________________________________________________
Dense1 (Dense)               (None, 512)               401920
_________________________________________________________________
dropout1 (Dropout)           (None, 512)               0
_________________________________________________________________
Dense2 (Dense)               (None, 128)               65664
_________________________________________________________________
dropout2 (Dropout)           (None, 128)               0
_________________________________________________________________
softmax (Dense)              (None, 10)                1290
=================================================================
Total params: 468,874
Trainable params: 468,874
Non-trainable params: 0
_________________________________________________________________</code></pre>
<p>网络第一层 <code>Flatten</code> 将图像转换成以为数组，该层没有要学习的参数。</p>
<p>每个 <code>Dense</code> 层有 512 神经元， 最后一个使用 <code>softmax</code> 激活函数，它可以将一个数值向量归一化为一个概率分布向量:</p>
<p><span class="math display">\[
…
&#x27;relu&#x27;</span>))</span><br><span class="line">model.add(Dropout(<span class="number">0.4</span>))</span><br><span class="line">model.add(Dense(<span class="number">10</span>,activation=<span class="string">&#x27;softmax&#x27;</span>))</span><br><span class="line">model.summary()</span><br></pre></td></tr></table></figure>
<pre><code>Model: &quot;sequential_5&quot;
_________________________________________________________________
Layer (type)                 Output Shape              Param #
=================================================================
conv2d_8 (Conv2D)            (None, 26, 26, 32)        320
_________________________________________________________________
dropout_12 (Dropout)         (None, 26, 26, 32)        0
_________________________________________________________________
conv2d_9 (Conv2D)            (None, 24, 24, 16)        4624
_________________________________________________________________
max_pooling2d_4 (MaxPooling2 (None, 12, 12, 16)        0
_________________________________________________________________
dropout_13 (Dropout)         (None, 12, 12, 16)        0
_________________________________________________________________
flatten_5 (Flatten)          (None, 2304)              0
_________________________________________________________________
dense_8 (Dense)              (None, 128)               295040
_________________________________________________________________
dropout_14 (Dropout)         (None, 128)               0
_________________________________________________________________
dense_9 (Dense)              (None, 10)                1290
=================================================================
Total params: 301,274
Trainable params: 301,274
Non-trainable params: 0
_________________________________________________________________</code></pre>
<h2 id="编译和训练模型">编译和训练模型</h2>
<p>选择 <code>Adamdelta</code> 作为优化器</p>
<figure class="highlight python"><table><tr><td class="code"><pre><span class="line"><span class="keyword">from</
…
